…
"output_type":"stream","text":["Model: \"model\"\n","__________________________________________________________________________________________________\n"," Layer (type)                   Output Shape         Param #     Connected to                     \n","==================================================================================================\n"," input_1 (InputLayer)           [(None, 96, 96, 3)]  0           []                               \n","                                                                                                  \n"," conv1_pad (ZeroPadding2D)      (None, 102, 102, 3)  0           ['input_1[0][0]']                \n","                                                                                                  \n"," conv1_conv (Conv2D)            (None, 48, 48, 64)   9472        ['conv1_pad[0][0]']              \n","                                                                                                  \n"," conv1_bn (BatchNormalization)  (None, 48, 48, 64)   256         ['conv1_conv[0][0]']             \n","                                                                                                  \n"," conv1_relu (Activation)        (None, 48, 48, 64)   0           ['conv1_bn[0][0]']               \n","                                                                                                  \n"," pool1_pad (ZeroPadding2D)      (None, 50, 50, 64)   0           ['conv1_relu[0][0]']             \n","                                                                                                  \n"," pool1_pool (MaxPooling2D)      (None, 24, 24, 64)   0           ['pool1_pad[0][0]']              \n","                                                                                                  \n"," conv2_block1_1_conv (Conv2D)   (None, 24, 24, 64)   4160        ['pool1_pool[0][0]']             \n","                                                                                                  \n"," conv2_block1_1_bn (BatchNormal  (None, 24, 24, 64)  256         ['conv2_block1_1_conv[0][0]']    \n"," ization)                                                                                         \n","                                                                                                  \n"," conv2_block1_1_relu (Activatio  (None, 24, 24, 64)  0           ['conv2_block1_1_bn[0][0]']      \n"," n)                                                                                               \n","                                                                                                  \n"," conv2_block1_2_conv (Conv2D)   (None, 24, 24, 64)   36928       ['conv2_block1_1_relu[0][0]']    \n","                                                                                                  \n"," conv2_block1_2_bn (BatchNormal  (None, 24, 24, 64)  256         ['conv2_block1_2_conv[0][0]']    \n"," ization)                                                                                         \n","                                                                                                  \n"," conv2_block1_2_relu (Activatio  (None, 24, 24, 64)  0           ['conv2_block1_2_bn[0][0]']      \n"," n)                                                                                               \n","                                                                                                  \n"," conv2_block1_0_conv (Conv2D)   (None, 24, 24, 256)  16640       ['pool1_pool[0][0]']             \n","                                                                                                  \n"," conv2_block1_3_conv (Conv2D)   (None, 24, 24, 256)  16640       ['conv2_block1_2_relu[0][0]']    \n","                                                                                                  \n"," conv2_block1_0_bn (BatchNormal  (None, 24, 24, 256)  1024       ['conv2_block1_0_conv[0][0]']    \n"," ization)                                                                                         \n","                                                                                                  \n"," conv2_block1_3_bn (BatchNormal  (None, 24, 24, 256)  1024       ['conv2_block1_3_conv[0][0]']    \n"," ization)                                                                                         \n","                                                                                                  \n"," conv2_block1_add (Add)         (None, 24, 24, 256)  0           ['conv2_block1_0_bn[0][0]',      \n","                                                                  'conv2_block1_3_bn[0][0]']      \n","                                                                                                  \n"," conv2_block1_out (Activation)  (None, 24, 24, 256)  0           ['conv2_block1_add[0][0]']       \n","                                                                                                  \n"," conv2_block2_1_conv (Conv2D)   (None, 24, 24, 64)   16448       ['conv2_block1_out[0][0]']       \n","                                                                                                  \n"," conv2_block2_1_bn (BatchNormal  (None, 24, 24, 64)  256         ['conv2_block2_1_conv[0][0]']    \n"," ization)                                                                                         \n","                                                                                                  \n"," conv2_block2_1_relu (Activatio  (None, 24, 24, 64)  0           ['conv2_block2_1_bn[0][0]']      \n"," n)                                                                                               \n","                                                                                                  \n"," conv2_block2_2_conv (Conv2D)   (None, 24, 24, 64)   36928       ['conv2_block2_1_relu[0][0]']    \n","                                                                                                  \n"," conv2_block2_2_bn (BatchNormal  (None, 24, 24, 64)  256         ['conv2_block2_2_conv[0][0]']    \n"," ization)                                                                                         \n","                                                                                                  \n"," conv2_block2_2_relu (Activatio  (None, 24, 24, 64)  0           ['conv2_block2_2_bn[0][0]']      \n"," n)                                                                                               \n","                                                                                                  \n"," conv2_block2_3_conv (Conv2D)   (None, 24, 24, 256)  16640       ['conv2_block2_2_relu[0][0]']    \n","                                                                                                  \n"," conv2_block2_3_bn (BatchNormal  (None, 24, 24, 256)  1024       ['conv2_block2_3_conv[0][0]']    \n"," ization)                                                                                         \n","                                                                                                  \n"," conv2_block2_add (Add)         (None, 24, 24, 256)  0           ['conv2_block1_out[0][0]',       \n","                                                                  'conv2_block2_3_bn[0][0]']      \n","                                                                                                  \n"," conv2_block2_out (Activation)  (None, 24, 24, 256)  0           ['conv2_block2_add[0][0]']       \n","                                                                                                  \n"," conv2_block3_1_conv (Conv2D)   (None, 24, 24, 64)   16448       ['conv2_block2_out[0][0]']       \n","                                                                                                  \n"," conv2_block3_1_bn (BatchNormal  (None, 24, 24, 64)  256         ['conv2_block3_1_conv[0][0]']    \n"," ization)                                                                                         \n","                                                                                                  \n"," conv2_block3_1_relu (Activatio  (None, 24, 24, 64)  0           ['conv2_block3_1_bn[0][0]']      \n"," n)                                                                                               \n","                                                                                                  \n"," conv2_block3_2_conv (Conv2D)   (None, 24, 24, 64)   36928       ['conv2_block3_1_relu[0][0]']    \n"]},{"name":"stdout","output_type":"stream","text":["                                                                                                  \n"," conv2_block3_2_bn (BatchNormal  (None, 24, 24, 64)  256         ['conv2_block3_2_conv[0][0]']    \n"," ization)                                                                                         \n","                                                                                                  \n"," conv2_block3_2_relu (Activatio  (None, 24, 24, 64)  0           ['conv2_block3_2_bn[0][0]']      \n"," n)                                                                                               \n","                                                                                                  \n"," conv2_block3_3_conv (Conv2D)   (None, 24, 24, 256)  16640       ['conv2_block3_2_relu[0][0]']    \n","                                                                                                  \n"," conv2_block3_3_bn (BatchNormal  (None, 24, 24, 256)  1024       ['conv2_block3_3_conv[0][0]']    \n"," ization)                                                                                         \n","                                                                                                  \n"," conv2_block3_add (Add)         (None, 24, 24, 256)  0           ['conv2_block2_out[0][0]',       \n","                                                                  'conv2_block3_3_bn[0][0]']      \n","                                                                                                  \n"," conv2_block3_out (Activation)  (None, 24, 24, 256)  0           ['conv2_block3_add[0][0]']       \n","                                                                                                  \n"," conv3_block1_1_conv (Conv2D)   (None, 12, 12, 128)  32896       ['conv2_block3_out[0][0]']       \n","                                                                                                  \n"," conv3_block1_1_bn (BatchNormal  (None, 12, 12, 128)  512        ['conv3_block1_1_conv[0][0]']    \n"," ization)                                                                                         \n","                                                                                                  \n"," conv3_block1_1_relu (Activatio  (None, 12, 12, 128)  0          ['conv3_block1_1_bn[0][0]']      \n"," n)                                                                                               \n","                                                                                                  \n"," conv3_block1_2_conv (Conv2D)   (None, 12, 12, 128)  147584      ['conv3_block1_1_relu[0][0]']    \n","                                                                                                  \n"," conv3_block1_2_bn (BatchNormal  (None, 12, 12, 128)  512        ['conv3_block1_2_conv[0][0]']    \n"," ization)                                                                                         \n","                                                                                                  \n"," conv3_block1_2_relu (Activatio  (None, 12, 12, 128)  0          ['conv3_block1_2_bn[0][0]']      \n"," n)                                                                                               \n","                                                                                                  \n"," conv3_block1_0_conv (Conv2D)   (None, 12, 12, 512)  131584      ['conv2_block3_out[0][0]']       \n","                                                                                                  \n"," conv3_block1_3_conv (Conv2D)   (None, 12, 12, 512)  66048       ['conv3_block1_2_relu[0][0]']    \n","                                                                                                  \n"," conv3_block1_0_bn (BatchNormal  (None, 12, 12, 512)  2048       ['conv3_block1_0_conv[0][0]']    \n"," ization)                                                                                         \n","                                                                                                  \n"," conv3_block1_3_bn (BatchNormal  (None, 12, 12, 512)  2048       ['conv3_block1_3_conv[0][0]']    \n"," ization)                                                                                         \n","                                                                                                  \n"," conv3_block1_add (Add)         (None, 12, 12, 512)  0           ['conv3_block1_0_bn[0][0]',      \n","                                                                  'conv3_block1_3_bn[0][0]']      \n","                                                                                                  \n"," conv3_block1_out (Activation)  (None, 12, 12, 512)  0           ['conv3_block1_add[0][0]']       \n","                                                                                                  \n"," conv3_block2_1_conv (Conv2D)   (None, 12, 12, 128)  65664       ['conv3_block1_out[0][0]']       \n","                                                                                                  \n"," conv3_block2_1_bn (BatchNormal  (None, 12, 12, 128)  512        ['conv3_block2_1_conv[0][0]']    \n"," ization)                                                                                         \n","                                                                                                  \n"," conv3_block2_1_relu (Activatio  (None, 12, 12, 128)  0          ['conv3_block2_1_bn[0][0]']      \n"," n)                                                                                               \n","                                                                                                  \n"," conv3_block2_2_conv (Conv2D)   (None, 12, 12, 128)  147584      ['conv3_block2_1_relu[0][0]']    \n","                                                                                                  \n"," conv3_block2_2_bn (BatchNormal  (None, 12, 12, 128)  512        ['conv3_block2_2_conv[0][0]']    \n"," ization)                                                                                         \n","                                                                                                  \n"," conv3_block2_2_relu (Activatio  (None, 12, 12, 128)  0          ['conv3_block2_2_bn[0][0]']      \n"," n)                                                                                               \n","                                                                                                  \n"," conv3_block2_3_conv (Conv2D)   (None, 12, 12, 512)  66048       ['conv3_block2_2_relu[0][0]']    \n","                                                                                                  \n"," conv3_block2_3_bn (BatchNormal  (None, 12, 12, 512)  2048       ['conv3_block2_3_conv[0][0]']    \n"," ization)                                                                                         \n","                                                                                                  \n"," conv3_block2_add (Add)         (None, 12, 12, 512)  0           ['conv3_block1_out[0][0]',       \n","                                                                  'conv3_block2_3_bn[0][0]']      \n","                                                                                                  \n"," conv3_block2_out (Activation)  (None, 12, 12, 512)  0           ['conv3_block2_add[0][0]']       \n","                                                                                                  \n"," conv3_block3_1_conv (Conv2D)   (None, 12, 12, 128)  65664       ['conv3_block2_out[0][0]']       \n","                                                                                                  \n"," conv3_block3_1_bn (BatchNormal  (None, 12, 12, 128)  512        ['conv3_block3_1_conv[0][0]']    \n"," ization)                                                                                         \n","                                                                                                  \n"," conv3_block3_1_relu (Activatio  (None, 12, 12, 128)  0          ['conv3_block3_1_bn[0][0]']      \n"," n)                                                                                               \n","                                                                                                  \n"," conv3_block3_2_conv (Conv2D)   (None, 12, 12, 128)  147584      ['conv3_block3_1_relu[0][0]']    \n"]},{"name":"stdout","output_type":"stream","text":["                                                                                                  \n"," conv3_block3_2_bn (BatchNormal  (None, 12, 12, 128)  512        ['conv3_block3_2_conv[0][0]']    \n"," ization)                                                                                         \n","                                                                                                  \n"," conv3_block3_2_relu (Activatio  (None, 12, 12, 128)  0          ['conv3_block3_2_bn[0][0]']      \n"," n)                                                                                               \n","                                                                                                  \n"," conv3_block3_3_conv (Conv2D)   (None, 12, 12, 512)  66048       ['conv3_block3_2_relu[0][0]']    \n","                                                                                                  \n"," conv3_block3_3_bn (BatchNormal  (None, 12, 12, 512)  2048       ['conv3_block3_3_conv[0][0]']    \n"," ization)                                                                                         \n","                                                                                                  \n"," conv3_block3_add (Add)         (None, 12, 12, 512)  0           ['conv3_block2_out[0][0]',       \n","                                                                  'conv3_block3_3_bn[0][0]']      \n","                                                                                                  \n"," conv3_block3_out (Activation)  (None, 12, 12, 512)  0           ['conv3_block3_add[0][0]']       \n","                                                                                                  \n"," conv3_block4_1_conv (Conv2D)   (None, 12, 12, 128)  65664       ['conv3_block3_out[0][0]']       \n","                                                                                                  \n"," conv3_block4_1_bn (BatchNormal  (None, 12, 12, 128)  512        ['conv3_block4_1_conv[0][0]']    \n"," ization)                                                                                         \n","                                                                                                  \n"," conv3_block4_1_relu (Activatio  (None, 12, 12, 128)  0          ['conv3_block4_1_bn[0][0]']      \n"," n)                                                                                               \n","                                                                                                  \n"," conv3_block4_2_conv (Conv2D)   (None, 12, 12, 128)  147584      ['conv3_block4_1_relu[0][0]']    \n","                                                                                                  \n"," conv3_block4_2_bn (BatchNormal  (None, 12, 12, 128)  512        ['conv3_block4_2_conv[0][0]']    \n"," ization)                                                                                         \n","                                                                                                  \n"," conv3_block4_2_relu (Activatio  (None, 12, 12, 128)  0          ['conv3_block4_2_bn[0][0]']      \n"," n)                                                                                               \n","                                                                                                  \n"," conv3_block4_3_conv (Conv2D)   (None, 12, 12, 512)  66048       ['conv3_block4_2_relu[0][0]']    \n","                                                                                                  \n"," conv3_block4_3_bn (BatchNormal  (None, 12, 12, 512)  2048       ['conv3_block4_3_conv[0][0]']    \n"," ization)                                                                                         \n","                                                                                                  \n"," conv3_block4_add (Add)         (None, 12, 12, 512)  0           ['conv3_block3_out[0][0]',       \n","                                                                  'conv3_block4_3_bn[0][0]']      \n","                                                                                                  \n"," conv3_block4_out (Activation)  (None, 12, 12, 512)  0           ['conv3_block4_add[0][0]']       \n","                                                                                                  \n"," conv4_block1_1_conv (Conv2D)   (None, 6, 6, 256)    131328      ['conv3_block4_out[0][0]']       \n","                                                                                                  \n"," conv4_block1_1_bn (BatchNormal  (None, 6, 6, 256)   1024        ['conv4_block1_1_conv[0][0]']    \n"," ization)                                                                                         \n","                                                                                                  \n"," conv4_block1_1_relu (Activatio  (None, 6, 6, 256)   0           ['conv4_block1_1_bn[0][0]']      \n"," n)                                                                                               \n","                                                                                                  \n"," conv4_block1_2_conv (Conv2D)   (None, 6, 6, 256)    590080      ['conv4_block1_1_relu[0][0]']    \n","                                                                                                  \n"," conv4_block1_2_bn (BatchNormal  (None, 6, 6, 256)   1024        ['conv4_block1_2_conv[0][0]']    \n"," ization)                                                                                         \n","                                                                                                  \n"," conv4_block1_2_relu (Activatio  (None, 6, 6, 256)   0           ['conv4_block1_2_bn[0][0]']      \n"," n)                                                                                               \n","                                                                                                  \n"," conv4_block1_0_conv (Conv2D)   (None, 6, 6, 1024)   525312      ['conv3_block4_out[0][0]']       \n","                                                                                                  \n"," conv4_block1_3_conv (Conv2D)   (None, 6, 6, 1024)   263168      ['conv4_block1_2_relu[0][0]']    \n","                                                                                                  \n"," conv4_block1_0_bn (BatchNormal  (None, 6, 6, 1024)  4096        ['conv4_block1_0_conv[0][0]']    \n"," ization)                                                                                         \n","                                                                                                  \n"," conv4_block1_3_bn (BatchNormal  (None, 6, 6, 1024)  4096        ['conv4_block1_3_conv[0][0]']    \n"," ization)                                                                                         \n","                                                                                                  \n"," conv4_block1_add (Add)         (None, 6, 6, 1024)   0           ['conv4_block1_0_bn[0][0]',      \n","                                                                  'conv4_block1_3_bn[0][0]']      \n","                                                                                                  \n"," conv4_block1_out (Activation)  (None, 6, 6, 1024)   0           ['conv4_block1_add[0][0]']       \n","                                                                                                  \n"," conv4_block2_1_conv (Conv2D)   (None, 6, 6, 256)    262400      ['conv4_block1_out[0][0]']       \n","                                                                                                  \n"," conv4_block2_1_bn (BatchNormal  (None, 6, 6, 256)   1024        ['conv4_block2_1_conv[0][0]']    \n"," ization)                                                                                         \n","                                                                                                  \n"," conv4_block2_1_relu (Activatio  (None, 6, 6, 256)   0           ['conv4_block2_1_bn[0][0]']      \n"," n)                                                                                               \n","                                                                                                  \n"," conv4_block2_2_conv (Conv2D)   (None, 6, 6, 256)    590080      ['conv4_block2_1_relu[0][0]']    \n"]},{"name":"stdout","output_type":"stream","text":["                                                                                                  \n"," conv4_block2_2_bn (BatchNormal  (None, 6, 6, 256)   1024        ['conv4_block2_2_conv[0][0]']    \n"," ization)                                                                                         \n","                                                                                                  \n"," conv4_block2_2_relu (Activatio  (None, 6, 6, 256)   0           ['conv4_block2_2_bn[0][0]']      \n"," n)                                                                                               \n","                                                                                                  \n"," conv4_block2_3_conv (Conv2D)   (None, 6, 6, 1024)   263168      ['conv4_block2_2_relu[0][0]']    \n","                                                                                                  \n"," conv4_block2_3_bn (BatchNormal  (None, 6, 6, 1024)  4096        ['conv4_block2_3_conv[0][0]']    \n"," ization)                                                                                         \n","                                                                                                  \n"," conv4_block2_add (Add)         (None, 6, 6, 1024)   0           ['conv4_block1_out[0][0]',       \n","                                                                  'conv4_block2_3_bn[0][0]']      \n","                                                                                                  \n"," conv4_block2_out (Activation)  (None, 6, 6, 1024)   0           ['conv4_block2_add[0][0]']       \n","                                                                                                  \n"," conv4_block3_1_conv (Conv2D)   (None, 6, 6, 256)    262400      ['conv4_block2_out[0][0]']       \n","                                                                                                  \n"," conv4_block3_1_bn (BatchNormal  (None, 6, 6, 256)   1024        ['conv4_block3_1_conv[0][0]']    \n"," ization)                                                                                         \n","                                                                                                  \n"," conv4_block3_1_relu (Activatio  (None, 6, 6, 256)   0           ['conv4_block3_1_bn[0][0]']      \n"," n)                                                                                               \n","                                                                                                  \n"," conv4_block3_2_conv (Conv2D)   (None, 6, 6, 256)    590080      ['conv4_block3_1_relu[0][0]']    \n","                                                                                                  \n"," conv4_block3_2_bn (BatchNormal  (None, 6, 6, 256)   1024        ['conv4_block3_2_conv[0][0]']    \n"," ization)                                                                                         \n","                                                                                                  \n"," conv4_block3_2_relu (Activatio  (None, 6, 6, 256)   0           ['conv4_block3_2_bn[0][0]']      \n"," n)                                                                                               \n","                                                                                                  \n"," conv4_block3_3_conv (Conv2D)   (None, 6, 6, 1024)   263168      ['conv4_block3_2_relu[0][0]']    \n","                                                                                                  \n"," conv4_block3_3_bn (BatchNormal  (None, 6, 6, 1024)  4096        ['conv4_block3_3_conv[0][0]']    \n"," ization)                                                                                         \n","                                                                                                  \n"," conv4_block3_add (Add)         (None, 6, 6, 1024)   0           ['conv4_block2_out[0][0]',       \n","                                                                  'conv4_block3_3_bn[0][0]']      \n","                                                                                                  \n"," conv4_block3_out (Activation)  (None, 6, 6, 1024)   0           ['conv4_block3_add[0][0]']       \n","                                                                                                  \n"," conv4_block4_1_conv (Conv2D)   (None, 6, 6, 256)    262400      ['conv4_block3_out[0][0]']       \n","                                                                                                  \n"," conv4_block4_1_bn (BatchNormal  (None, 6, 6, 256)   1024        ['conv4_block4_1_conv[0][0]']    \n"," ization)                                                                                         \n","                                                                                                  \n"," conv4_block4_1_relu (Activatio  (None, 6, 6, 256)   0           ['conv4_block4_1_bn[0][0]']      \n"," n)                                                                                               \n","                                                                                                  \n"," conv4_block4_2_conv (Conv2D)   (None, 6, 6, 256)    590080      ['conv4_block4_1_relu[0][0]']    \n","                                                                                                  \n"," conv4_block4_2_bn (BatchNormal  (None, 6, 6, 256)   1024        ['conv4_block4_2_conv[0][0]']    \n"," ization)                                                                                         \n","                                                                                                  \n"," conv4_block4_2_relu (Activatio  (None, 6, 6, 256)   0           ['conv4_block4_2_bn[0][0]']      \n"," n)                                                                                               \n","                                                                                                  \n"," conv4_block4_3_conv (Conv2D)   (None, 6, 6, 1024)   263168      ['conv4_block4_2_relu[0][0]']    \n","                                                                                                  \n"," conv4_block4_3_bn (BatchNormal  (None, 6, 6, 1024)  4096        ['conv4_block4_3_conv[0][0]']    \n"," ization)                                                                                         \n","                                                                                                  \n"," conv4_block4_add (Add)         (None, 6, 6, 1024)   0           ['conv4_block3_out[0][0]',       \n","                                                                  'conv4_block4_3_bn[0][0]']      \n","                                                                                                  \n"," conv4_block4_out (Activation)  (None, 6, 6, 1024)   0           ['conv4_block4_add[0][0]']       \n","                                                                                                  \n"," conv4_block5_1_conv (Conv2D)   (None, 6, 6, 256)    262400      ['conv4_block4_out[0][0]']       \n","                                                                                                  \n"," conv4_block5_1_bn (BatchNormal  (None, 6, 6, 256)   1024        ['conv4_block5_1_conv[0][0]']    \n"," ization)                                                                                         \n","                                                                                                  \n"," conv4_block5_1_relu (Activatio  (None, 6, 6, 256)   0           ['conv4_block5_1_bn[0][0]']      \n"," n)                                                                                               \n","                                                                                                  \n"," conv4_block5_2_conv (Conv2D)   (None, 6, 6, 256)    590080      ['conv4_block5_1_relu[0][0]']    \n","                                                                                                  \n"," conv4_block5_2_bn (BatchNormal  (None, 6, 6, 256)   1024        ['conv4_block5_2_conv[0][0]']    \n"," ization)                                                                                         \n","                                                                                                  \n"," conv4_block5_2_relu (Activatio  (None, 6, 6, 256)   0           ['conv4_block5_2_bn[0][0]']      \n"]},{"name":"stdout","output_type":"stream","text":[" n)                                                                                               \n","                                                                                                  \n"," conv4_block5_3_conv (Conv2D)   (None, 6, 6, 1024)   263168      ['conv4_block5_2_relu[0][0]']    \n","                                                                                                  \n"," conv4_block5_3_bn (BatchNormal  (None, 6, 6, 1024)  4096        ['conv4_block5_3_conv[0][0]']    \n"," ization)                                                                                         \n","                                                                                                  \n"," conv4_block5_add (Add)         (None, 6, 6, 1024)   0           ['conv4_block4_out[0][0]',       \n","                                                                  'conv4_block5_3_bn[0][0]']      \n","                                                                                                  \n"," conv4_block5_out (Activation)  (None, 6, 6, 1024)   0           ['conv4_block5_add[0][0]']       \n","                                                                                                  \n"," conv4_block6_1_conv (Conv2D)   (None, 6, 6, 256)    262400      ['conv4_block5_out[0][0]']       \n","                                                                                                  \n"," conv4_block6_1_bn (BatchNormal  (None, 6, 6, 256)   1024        ['conv4_block6_1_conv[0][0]']    \n"," ization)                                                                                         \n","                                                                                                  \n"," conv4_block6_1_relu (Activatio  (None, 6, 6, 256)   0           ['conv4_block6_1_bn[0][0]']      \n"," n)                                                                                               \n","                                                                                                  \n"," conv4_block6_2_conv (Conv2D)   (None, 6, 6, 256)    590080      ['conv4_block6_1_relu[0][0]']    \n","                                                                                                  \n"," conv4_block6_2_bn (BatchNormal  (None, 6, 6, 256)   1024        ['conv4_block6_2_conv[0][0]']    \n"," ization)                                                                                         \n","                                                                                                  \n"," conv4_block6_2_relu (Activatio  (None, 6, 6, 256)   0           ['conv4_block6_2_bn[0][0]']      \n"," n)                                                                                               \n","                                                                                                  \n"," conv4_block6_3_conv (Conv2D)   (None, 6, 6, 1024)   263168      ['conv4_block6_2_relu[0][0]']    \n","                                                                                                  \n"," conv4_block6_3_bn (BatchNormal  (None, 6, 6, 1024)  4096        ['conv4_block6_3_conv[0][0]']    \n"," ization)                                                                                         \n","                                                                                                  \n"," conv4_block6_add (Add)         (None, 6, 6, 1024)   0           ['conv4_block5_out[0][0]',       \n","                                                                  'conv4_block6_3_bn[0][0]']      \n","                                                                                                  \n"," conv4_block6_out (Activation)  (None, 6, 6, 1024)   0           ['conv4_block6_add[0][0]']       \n","                                                                                                  \n"," conv4_block7_1_conv (Conv2D)   (None, 6, 6, 256)    262400      ['conv4_block6_out[0][0]']       \n","                                                                                                  \n"," conv4_block7_1_bn (BatchNormal  (None, 6, 6, 256)   1024        ['conv4_block7_1_conv[0][0]']    \n"," ization)                                                                                         \n","                                                                                                  \n"," conv4_block7_1_relu (Activatio  (None, 6, 6, 256)   0           ['conv4_block7_1_bn[0][0]']      \n"," n)                                                                                               \n","                                                                                                  \n"," conv4_block7_2_conv (Conv2D)   (None, 6, 6, 256)    590080      ['conv4_block7_1_relu[0][0]']    \n","                                                                                                  \n"," conv4_block7_2_bn (BatchNormal  (None, 6, 6, 256)   1024        ['conv4_block7_2_conv[0][0]']    \n"," ization)                                                                                         \n","                                                                                                  \n"," conv4_block7_2_relu (Activatio  (None, 6, 6, 256)   0           ['conv4_block7_2_bn[0][0]']      \n"," n)                                                                                               \n","                                                                                                  \n"," conv4_block7_3_conv (Conv2D)   (None, 6, 6, 1024)   263168      ['conv4_block7_2_relu[0][0]']    \n","                                                                                                  \n"," conv4_block7_3_bn (BatchNormal  (None, 6, 6, 1024)  4096        ['conv4_block7_3_conv[0][0]']    \n"," ization)                                                                                         \n","                                                                                                  \n"," conv4_block7_add (Add)         (None, 6, 6, 1024)   0           ['conv4_block6_out[0][0]',       \n","                                                                  'conv4_block7_3_bn[0][0]']      \n","                                                                                                  \n"," conv4_block7_out (Activation)  (None, 6, 6, 1024)   0           ['conv4_block7_add[0][0]']       \n","                                                                                                  \n"," conv4_block8_1_conv (Conv2D)   (None, 6, 6, 256)    262400      ['conv4_block7_out[0][0]']       \n","                                                                                                  \n"," conv4_block8_1_bn (BatchNormal  (None, 6, 6, 256)   1024        ['conv4_block8_1_conv[0][0]']    \n"," ization)                                                                                         \n","                                                                                                  \n"," conv4_block8_1_relu (Activatio  (None, 6, 6, 256)   0           ['conv4_block8_1_bn[0][0]']      \n"," n)                                                                                               \n","                                                                                                  \n"," conv4_block8_2_conv (Conv2D)   (None, 6, 6, 256)    590080      ['conv4_block8_1_relu[0][0]']    \n","                                                                                                  \n"," conv4_block8_2_bn (BatchNormal  (None, 6, 6, 256)   1024        ['conv4_block8_2_conv[0][0]']    \n"," ization)                                                                                         \n","                                                                                                  \n"," conv4_block8_2_relu (Activatio  (None, 6, 6, 256)   0           ['conv4_block8_2_bn[0][0]']      \n"," n)                                                                                               \n","                                                                                                  \n"," conv4_block8_3_conv (Conv2D)   (None, 6, 6, 1024)   263168      ['conv4_block8_2_relu[0][0]']    \n","                                                                                                  \n"," conv4_block8_3_bn (BatchNormal  (None, 6, 6, 1024)  4096        ['conv4_block8_3_conv[0][0]']    \n"]},{"name":"stdout","output_type":"stream","text":[" ization)                                                                                         \n","                                                                                                  \n"," conv4_block8_add (Add)         (None, 6, 6, 1024)   0           ['conv4_block7_out[0][0]',       \n","                                                                  'conv4_block8_3_bn[0][0]']      \n","                                                                                                  \n"," conv4_block8_out (Activation)  (None, 6, 6, 1024)   0           ['conv4_block8_add[0][0]']       \n","                                                                                                  \n"," conv4_block9_1_conv (Conv2D)   (None, 6, 6, 256)    262400      ['conv4_block8_out[0][0]']       \n","                                                                                                  \n"," conv4_block9_1_bn (BatchNormal  (None, 6, 6, 256)   1024        ['conv4_block9_1_conv[0][0]']    \n"," ization)                                                                                         \n","                                                                                                  \n"," conv4_block9_1_relu (Activatio  (None, 6, 6, 256)   0           ['conv4_block9_1_bn[0][0]']      \n"," n)                                                                                               \n","                                                                                                  \n"," conv4_block9_2_conv (Conv2D)   (None, 6, 6, 256)    590080      ['conv4_block9_1_relu[0][0]']    \n","                                                                                                  \n"," conv4_block9_2_bn (BatchNormal  (None, 6, 6, 256)   1024        ['conv4_block9_2_conv[0][0]']    \n"," ization)                                                                                         \n","                                                                                                  \n"," conv4_block9_2_relu (Activatio  (None, 6, 6, 256)   0           ['conv4_block9_2_bn[0][0]']      \n"," n)                                                                                               \n","                                                                                                  \n"," conv4_block9_3_conv (Conv2D)   (None, 6, 6, 1024)   263168      ['conv4_block9_2_relu[0][0]']    \n","                                                                                                  \n"," conv4_block9_3_bn (BatchNormal  (None, 6, 6, 1024)  4096        ['conv4_block9_3_conv[0][0]']    \n"," ization)                                                                                         \n","                                                                                                  \n"," conv4_block9_add (Add)         (None, 6, 6, 1024)   0           ['conv4_block8_out[0][0]',       \n","                                                                  'conv4_block9_3_bn[0][0]']      \n","                                                                                                  \n"," conv4_block9_out (Activation)  (None, 6, 6, 1024)   0           ['conv4_block9_add[0][0]']       \n","                                                                                                  \n"," conv4_block10_1_conv (Conv2D)  (None, 6, 6, 256)    262400      ['conv4_block9_out[0][0]']       \n","                                                                                                  \n"," conv4_block10_1_bn (BatchNorma  (None, 6, 6, 256)   1024        ['conv4_block10_1_conv[0][0]']   \n"," lization)                                                                                        \n","                                                                                                  \n"," conv4_block10_1_relu (Activati  (None, 6, 6, 256)   0           ['conv4_block10_1_bn[0][0]']     \n"," on)                                                                                              \n","                                                                                                  \n"," conv4_block10_2_conv (Conv2D)  (None, 6, 6, 256)    590080      ['conv4_block10_1_relu[0][0]']   \n","                                                                                                  \n"," conv4_block10_2_bn (BatchNorma  (None, 6, 6, 256)   1024        ['conv4_block10_2_conv[0][0]']   \n"," lization)                                                                                        \n","                                                                                                  \n"," conv4_block10_2_relu (Activati  (None, 6, 6, 256)   0           ['conv4_block10_2_bn[0][0]']     \n"," on)                                                                                              \n","                                                                                                  \n"," conv4_block10_3_conv (Conv2D)  (None, 6, 6, 1024)   263168      ['conv4_block10_2_relu[0][0]']   \n","                                                                                                  \n"," conv4_block10_3_bn (BatchNorma  (None, 6, 6, 1024)  4096        ['conv4_block10_3_conv[0][0]']   \n"," lization)                                                                                        \n","                                                                                                  \n"," conv4_block10_add (Add)        (None, 6, 6, 1024)   0           ['conv4_block9_out[0][0]',       \n","                                                                  'conv4_block10_3_bn[0][0]']     \n","                                                                                                  \n"," conv4_block10_out (Activation)  (None, 6, 6, 1024)  0           ['conv4_block10_add[0][0]']      \n","                                                                                                  \n"," conv4_block11_1_conv (Conv2D)  (None, 6, 6, 256)    262400      ['conv4_block10_out[0][0]']      \n","                                                                                                  \n"," conv4_block11_1_bn (BatchNorma  (None, 6, 6, 256)   1024        ['conv4_block11_1_conv[0][0]']   \n"," lization)                                                                                        \n","                                                                                                  \n"," conv4_block11_1_relu (Activati  (None, 6, 6, 256)   0           ['conv4_block11_1_bn[0][0]']     \n"," on)                                                                                              \n","                                                                                                  \n"," conv4_block11_2_conv (Conv2D)  (None, 6, 6, 256)    590080      ['conv4_block11_1_relu[0][0]']   \n","                                                                                                  \n"," conv4_block11_2_bn (BatchNorma  (None, 6, 6, 256)   1024        ['conv4_block11_2_conv[0][0]']   \n"," lization)                                                                                        \n","                                                                                                  \n"," conv4_block11_2_relu (Activati  (None, 6, 6, 256)   0           ['conv4_block11_2_bn[0][0]']     \n"," on)                                                                                              \n","                                                                                                  \n"," conv4_block11_3_conv (Conv2D)  (None, 6, 6, 1024)   263168      ['conv4_block11_2_relu[0][0]']   \n","                                                                                                  \n"," conv4_block11_3_bn (BatchNorma  (None, 6, 6, 1024)  4096        ['conv4_block11_3_conv[0][0]']   \n"," lization)                                                                                        \n","                                                                                                  \n"," conv4_block11_add (Add)        (None, 6, 6, 1024)   0           ['conv4_block10_out[0][0]',      \n","                                                                  'conv4_block11_3_bn[0][0]']     \n","                                                                                                  \n"]},{"name":"stdout","output_type":"stream","text":[" conv4_block11_out (Activation)  (None, 6, 6, 1024)  0           ['conv4_block11_add[0][0]']      \n","                                                                                                  \n"," conv4_block12_1_conv (Conv2D)  (None, 6, 6, 256)    262400      ['conv4_block11_out[0][0]']      \n","                                                                                                  \n"," conv4_block12_1_bn (BatchNorma  (None, 6, 6, 256)   1024        ['conv4_block12_1_conv[0][0]']   \n"," lization)                                                                                        \n","                                                                                                  \n"," conv4_block12_1_relu (Activati  (None, 6, 6, 256)   0           ['conv4_block12_1_bn[0][0]']     \n"," on)                                                                                              \n","                                                                                                  \n"," conv4_block12_2_conv (Conv2D)  (None, 6, 6, 256)    590080      ['conv4_block12_1_relu[0][0]']   \n","                                                                                                  \n"," conv4_block12_2_bn (BatchNorma  (None, 6, 6, 256)   1024        ['conv4_block12_2_conv[0][0]']   \n"," lization)                                                                                        \n","                                                                                                  \n"," conv4_block12_2_relu (Activati  (None, 6, 6, 256)   0           ['conv4_block12_2_bn[0][0]']     \n"," on)                                                                                              \n","                                                                                                  \n"," conv4_block12_3_conv (Conv2D)  (None, 6, 6, 1024)   263168      ['conv4_block12_2_relu[0][0]']   \n","                                                                                                  \n"," conv4_block12_3_bn (BatchNorma  (None, 6, 6, 1024)  4096        ['conv4_block12_3_conv[0][0]']   \n"," lization)                                                                                        \n","                                                                                                  \n"," conv4_block12_add (Add)        (None, 6, 6, 1024)   0           ['conv4_block11_out[0][0]',      \n","                                                                  'conv4_block12_3_bn[0][0]']     \n","                                                                                                  \n"," conv4_block12_out (Activation)  (None, 6, 6, 1024)  0           ['conv4_block12_add[0][0]']      \n","                                                                                                  \n"," conv4_block13_1_conv (Conv2D)  (None, 6, 6, 256)    262400      ['conv4_block12_out[0][0]']      \n","                                                                                                  \n"," conv4_block13_1_bn (BatchNorma  (None, 6, 6, 256)   1024        ['conv4_block13_1_conv[0][0]']   \n"," lization)                                                                                        \n","                                                                                                  \n"," conv4_block13_1_relu (Activati  (None, 6, 6, 256)   0           ['conv4_block13_1_bn[0][0]']     \n"," on)                                                                                              \n","                                                                                                  \n"," conv4_block13_2_conv (Conv2D)  (None, 6, 6, 256)    590080      ['conv4_block13_1_relu[0][0]']   \n","                                                                                                  \n"," conv4_block13_2_bn (BatchNorma  (None, 6, 6, 256)   1024        ['conv4_block13_2_conv[0][0]']   \n"," lization)                                                                                        \n","                                                                                                  \n"," conv4_block13_2_relu (Activati  (None, 6, 6, 256)   0           ['conv4_block13_2_bn[0][0]']     \n"," on)                                                                                              \n","                                                                                                  \n"," conv4_block13_3_conv (Conv2D)  (None, 6, 6, 1024)   263168      ['conv4_block13_2_relu[0][0]']   \n","                                                                                                  \n"," conv4_block13_3_bn (BatchNorma  (None, 6, 6, 1024)  4096        ['conv4_block13_3_conv[0][0]']   \n"," lization)                                                                                        \n","                                                                                                  \n"," conv4_block13_add (Add)        (None, 6, 6, 1024)   0           ['conv4_block12_out[0][0]',      \n","                                                                  'conv4_block13_3_bn[0][0]']     \n","                                                                                                  \n"," conv4_block13_out (Activation)  (None, 6, 6, 1024)  0           ['conv4_block13_add[0][0]']      \n","                                                                                                  \n"," conv4_block14_1_conv (Conv2D)  (None, 6, 6, 256)    262400      ['conv4_block13_out[0][0]']      \n","                                                                                                  \n"," conv4_block14_1_bn (BatchNorma  (None, 6, 6, 256)   1024        ['conv4_block14_1_conv[0][0]']   \n"," lization)                                                                                        \n","                                                                                                  \n"," conv4_block14_1_relu (Activati  (None, 6, 6, 256)   0           ['conv4_block14_1_bn[0][0]']     \n"," on)                                                                                              \n","                                                                                                  \n"," conv4_block14_2_conv (Conv2D)  (None, 6, 6, 256)    590080      ['conv4_block14_1_relu[0][0]']   \n","                                                                                                  \n"," conv4_block14_2_bn (BatchNorma  (None, 6, 6, 256)   1024        ['conv4_block14_2_conv[0][0]']   \n"," lization)                                                                                        \n","                                                                                                  \n"," conv4_block14_2_relu (Activati  (None, 6, 6, 256)   0           ['conv4_block14_2_bn[0][0]']     \n"," on)                                                                                              \n","                                                                                                  \n"," conv4_block14_3_conv (Conv2D)  (None, 6, 6, 1024)   263168      ['conv4_block14_2_relu[0][0]']   \n","                                                                                                  \n"," conv4_block14_3_bn (BatchNorma  (None, 6, 6, 1024)  4096        ['conv4_block14_3_conv[0][0]']   \n"," lization)                                                                                        \n","                                                                                                  \n"," conv4_block14_add (Add)        (None, 6, 6, 1024)   0           ['conv4_block13_out[0][0]',      \n","                                                                  'conv4_block14_3_bn[0][0]']     \n","                                                                                                  \n"," conv4_block14_out (Activation)  (None, 6, 6, 1024)  0           ['conv4_block14_add[0][0]']      \n","                                                                                                  \n"," conv4_block15_1_conv (Conv2D)  (None, 6, 6, 256)    262400      ['conv4_block14_out[0][0]']      \n","                                                                                                  \n"," conv4_block15_1_bn (BatchNorma  (None, 6, 6, 256)   1024        ['conv4_block15_1_conv[0][0]']   \n"]},{"name":"stdout","output_type":"stream","text":[" lization)                                                                                        \n","                                                                                                  \n"," conv4_block15_1_relu (Activati  (None, 6, 6, 256)   0           ['conv4_block15_1_bn[0][0]']     \n"," on)                                                                                              \n","                                                                                                  \n"," conv4_block15_2_conv (Conv2D)  (None, 6, 6, 256)    590080      ['conv4_block15_1_relu[0][0]']   \n","                                                                                                  \n"," conv4_block15_2_bn (BatchNorma  (None, 6, 6, 256)   1024        ['conv4_block15_2_conv[0][0]']   \n"," lization)                                                                                        \n","                                                                                                  \n"," conv4_block15_2_relu (Activati  (None, 6, 6, 256)   0           ['conv4_block15_2_bn[0][0]']     \n"," on)                                                                                              \n","                                                                                                  \n"," conv4_block15_3_conv (Conv2D)  (None, 6, 6, 1024)   263168      ['conv4_block15_2_relu[0][0]']   \n","                                                                                                  \n"," conv4_block15_3_bn (BatchNorma  (None, 6, 6, 1024)  4096        ['conv4_block15_3_conv[0][0]']   \n"," lization)                                                                                        \n","                                                                                                  \n"," conv4_block15_add (Add)        (None, 6, 6, 1024)   0           ['conv4_block14_out[0][0]',      \n","                                                                  'conv4_block15_3_bn[0][0]']     \n","                                                                                                  \n"," conv4_block15_out (Activation)  (None, 6, 6, 1024)  0           ['conv4_block15_add[0][0]']      \n","                                                                                                  \n"," conv4_block16_1_conv (Conv2D)  (None, 6, 6, 256)    262400      ['conv4_block15_out[0][0]']      \n","                                                                                                  \n"," conv4_block16_1_bn (BatchNorma  (None, 6, 6, 256)   1024        ['conv4_block16_1_conv[0][0]']   \n"," lization)                                                                                        \n","                                                                                                  \n"," conv4_block16_1_relu (Activati  (None, 6, 6, 256)   0           ['conv4_block16_1_bn[0][0]']     \n"," on)                                                                                              \n","                                                                                                  \n"," conv4_block16_2_conv (Conv2D)  (None, 6, 6, 256)    590080      ['conv4_block16_1_relu[0][0]']   \n","                                                                                                  \n"," conv4_block16_2_bn (BatchNorma  (None, 6, 6, 256)   1024        ['conv4_block16_2_conv[0][0]']   \n"," lization)                                                                                        \n","                                                                                                  \n"," conv4_block16_2_relu (Activati  (None, 6, 6, 256)   0           ['conv4_block16_2_bn[0][0]']     \n"," on)                                                                                              \n","                                                                                                  \n"," conv4_block16_3_conv (Conv2D)  (None, 6, 6, 1024)   263168      ['conv4_block16_2_relu[0][0]']   \n","                                                                                                  \n"," conv4_block16_3_bn (BatchNorma  (None, 6, 6, 1024)  4096        ['conv4_block16_3_conv[0][0]']   \n"," lization)                                                                                        \n","                                                                                                  \n"," conv4_block16_add (Add)        (None, 6, 6, 1024)   0           ['conv4_block15_out[0][0]',      \n","                                                                  'conv4_block16_3_bn[0][0]']     \n","                                                                                                  \n"," conv4_block16_out (Activation)  (None, 6, 6, 1024)  0           ['conv4_block16_add[0][0]']      \n","                                                                                                  \n"," conv4_block17_1_conv (Conv2D)  (None, 6, 6, 256)    262400      ['conv4_block16_out[0][0]']      \n","                                                                                                  \n"," conv4_block17_1_bn (BatchNorma  (None, 6, 6, 256)   1024        ['conv4_block17_1_conv[0][0]']   \n"," lization)                                                                                        \n","                                                                                                  \n"," conv4_block17_1_relu (Activati  (None, 6, 6, 256)   0           ['conv4_block17_1_bn[0][0]']     \n"," on)                                                                                              \n","                                                                                                  \n"," conv4_block17_2_conv (Conv2D)  (None, 6, 6, 256)    590080      ['conv4_block17_1_relu[0][0]']   \n","                                                                                                  \n"," conv4_block17_2_bn (BatchNorma  (None, 6, 6, 256)   1024        ['conv4_block17_2_conv[0][0]']   \n"," lization)                                                                                        \n","                                                                                                  \n"," conv4_block17_2_relu (Activati  (None, 6, 6, 256)   0           ['conv4_block17_2_bn[0][0]']     \n"," on)                                                                                              \n","                                                                                                  \n"," conv4_block17_3_conv (Conv2D)  (None, 6, 6, 1024)   263168      ['conv4_block17_2_relu[0][0]']   \n","                                                                                                  \n"," conv4_block17_3_bn (BatchNorma  (None, 6, 6, 1024)  4096        ['conv4_block17_3_conv[0][0]']   \n"," lization)                                                                                        \n","                                                                                                  \n"," conv4_block17_add (Add)        (None, 6, 6, 1024)   0           ['conv4_block16_out[0][0]',      \n","                                                                  'conv4_block17_3_bn[0][0]']     \n","                                                                                                  \n"," conv4_block17_out (Activation)  (None, 6, 6, 1024)  0           ['conv4_block17_add[0][0]']      \n","                                                                                                  \n"," conv4_block18_1_conv (Conv2D)  (None, 6, 6, 256)    262400      ['conv4_block17_out[0][0]']      \n","                                                                                                  \n"," conv4_block18_1_bn (BatchNorma  (None, 6, 6, 256)   1024        ['conv4_block18_1_conv[0][0]']   \n"," lization)                                                                                        \n","                                                                                                  \n"," conv4_block18_1_relu (Activati  (None, 6, 6, 256)   0           ['conv4_block18_1_bn[0][0]']     \n"," on)                                                                                              \n","                                                                                                  \n"]},{"name":"stdout","output_type":"stream","text":[" conv4_block18_2_conv (Conv2D)  (None, 6, 6, 256)    590080      ['conv4_block18_1_relu[0][0]']   \n","                                                                                                  \n"," conv4_block18_2_bn (BatchNorma  (None, 6, 6, 256)   1024        ['conv4_block18_2_conv[0][0]']   \n"," lization)                                                                                        \n","                                                                                                  \n"," conv4_block18_2_relu (Activati  (None, 6, 6, 256)   0           ['conv4_block18_2_bn[0][0]']     \n"," on)                                                                                              \n","                                                                                                  \n"," conv4_block18_3_conv (Conv2D)  (None, 6, 6, 1024)   263168      ['conv4_block18_2_relu[0][0]']   \n","                                                                                                  \n"," conv4_block18_3_bn (BatchNorma  (None, 6, 6, 1024)  4096        ['conv4_block18_3_conv[0][0]']   \n"," lization)                                                                                        \n","                                                                                                  \n"," conv4_block18_add (Add)        (None, 6, 6, 1024)   0           ['conv4_block17_out[0][0]',      \n","                                                                  'conv4_block18_3_bn[0][0]']     \n","                                                                                                  \n"," conv4_block18_out (Activation)  (None, 6, 6, 1024)  0           ['conv4_block18_add[0][0]']      \n","                                                                                                  \n"," conv4_block19_1_conv (Conv2D)  (None, 6, 6, 256)    262400      ['conv4_block18_out[0][0]']      \n","                                                                                                  \n"," conv4_block19_1_bn (BatchNorma  (None, 6, 6, 256)   1024        ['conv4_block19_1_conv[0][0]']   \n"," lization)                                                                                        \n","                                                                                                  \n"," conv4_block19_1_relu (Activati  (None, 6, 6, 256)   0           ['conv4_block19_1_bn[0][0]']     \n"," on)                                                                                              \n","                                                                                                  \n"," conv4_block19_2_conv (Conv2D)  (None, 6, 6, 256)    590080      ['conv4_block19_1_relu[0][0]']   \n","                                                                                                  \n"," conv4_block19_2_bn (BatchNorma  (None, 6, 6, 256)   1024        ['conv4_block19_2_conv[0][0]']   \n"," lization)                                                                                        \n","                                                                                                  \n"," conv4_block19_2_relu (Activati  (None, 6, 6, 256)   0           ['conv4_block19_2_bn[0][0]']     \n"," on)                                                                                              \n","                                                                                                  \n"," conv4_block19_3_conv (Conv2D)  (None, 6, 6, 1024)   263168      ['conv4_block19_2_relu[0][0]']   \n","                                                                                                  \n"," conv4_block19_3_bn (BatchNorma  (None, 6, 6, 1024)  4096        ['conv4_block19_3_conv[0][0]']   \n"," lization)                                                                                        \n","                                                                                                  \n"," conv4_block19_add (Add)        (None, 6, 6, 1024)   0           ['conv4_block18_out[0][0]',      \n","                                                                  'conv4_block19_3_bn[0][0]']     \n","                                                                                                  \n"," conv4_block19_out (Activation)  (None, 6, 6, 1024)  0           ['conv4_block19_add[0][0]']      \n","                                                                                                  \n"," conv4_block20_1_conv (Conv2D)  (None, 6, 6, 256)    262400      ['conv4_block19_out[0][0]']      \n","                                                                                                  \n"," conv4_block20_1_bn (BatchNorma  (None, 6, 6, 256)   1024        ['conv4_block20_1_conv[0][0]']   \n"," lization)                                                                                        \n","                                                                                                  \n"," conv4_block20_1_relu (Activati  (None, 6, 6, 256)   0           ['conv4_block20_1_bn[0][0]']     \n"," on)                                                                                              \n","                                                                                                  \n"," conv4_block20_2_conv (Conv2D)  (None, 6, 6, 256)    590080      ['conv4_block20_1_relu[0][0]']   \n","                                                                                                  \n"," conv4_block20_2_bn (BatchNorma  (None, 6, 6, 256)   1024        ['conv4_block20_2_conv[0][0]']   \n"," lization)                                                                                        \n","                                                                                                  \n"," conv4_block20_2_relu (Activati  (None, 6, 6, 256)   0           ['conv4_block20_2_bn[0][0]']     \n"," on)                                                                                              \n","                                                                                                  \n"," conv4_block20_3_conv (Conv2D)  (None, 6, 6, 1024)   263168      ['conv4_block20_2_relu[0][0]']   \n","                                                                                                  \n"," conv4_block20_3_bn (BatchNorma  (None, 6, 6, 1024)  4096        ['conv4_block20_3_conv[0][0]']   \n"," lization)                                                                                        \n","                                                                                                  \n"," conv4_block20_add (Add)        (None, 6, 6, 1024)   0           ['conv4_block19_out[0][0]',      \n","                                                                  'conv4_block20_3_bn[0][0]']     \n","                                                                                                  \n"," conv4_block20_out (Activation)  (None, 6, 6, 1024)  0           ['conv4_block20_add[0][0]']      \n","                                                                                                  \n"," conv4_block21_1_conv (Conv2D)  (None, 6, 6, 256)    262400      ['conv4_block20_out[0][0]']      \n","                                                                                                  \n"," conv4_block21_1_bn (BatchNorma  (None, 6, 6, 256)   1024        ['conv4_block21_1_conv[0][0]']   \n"," lization)                                                                                        \n","                                                                                                  \n"," conv4_block21_1_relu (Activati  (None, 6, 6, 256)   0           ['conv4_block21_1_bn[0][0]']     \n"," on)                                                                                              \n","                                                                                                  \n"," conv4_block21_2_conv (Conv2D)  (None, 6, 6, 256)    590080      ['conv4_block21_1_relu[0][0]']   \n","                                                                                                  \n"," conv4_block21_2_bn (BatchNorma  (None, 6, 6, 256)   1024        ['conv4_block21_2_conv[0][0]']   \n"," lization)                                                                                        \n","                                                                                                  \n"]},{"name":"stdout","output_type":"stream","text":[" conv4_block21_2_relu (Activati  (None, 6, 6, 256)   0           ['conv4_block21_2_bn[0][0]']     \n"," on)                                                                                              \n","                                                                                                  \n"," conv4_block21_3_conv (Conv2D)  (None, 6, 6, 1024)   263168      ['conv4_block21_2_relu[0][0]']   \n","                                                                                                  \n"," conv4_block21_3_bn (BatchNorma  (None, 6, 6, 1024)  4096        ['conv4_block21_3_conv[0][0]']   \n"," lization)                                                                                        \n","                                                                                                  \n"," conv4_block21_add (Add)        (None, 6, 6, 1024)   0           ['conv4_block20_out[0][0]',      \n","                                                                  'conv4_block21_3_bn[0][0]']     \n","                                                                                                  \n"," conv4_block21_out (Activation)  (None, 6, 6, 1024)  0           ['conv4_block21_add[0][0]']      \n","                                                                                                  \n"," conv4_block22_1_conv (Conv2D)  (None, 6, 6, 256)    262400      ['conv4_block21_out[0][0]']      \n","                                                                                                  \n"," conv4_block22_1_bn (BatchNorma  (None, 6, 6, 256)   1024        ['conv4_block22_1_conv[0][0]']   \n"," lization)                                                                                        \n","                                                                                                  \n"," conv4_block22_1_relu (Activati  (None, 6, 6, 256)   0           ['conv4_block22_1_bn[0][0]']     \n"," on)                                                                                              \n","                                                                                                  \n"," conv4_block22_2_conv (Conv2D)  (None, 6, 6, 256)    590080      ['conv4_block22_1_relu[0][0]']   \n","                                                                                                  \n"," conv4_block22_2_bn (BatchNorma  (None, 6, 6, 256)   1024        ['conv4_block22_2_conv[0][0]']   \n"," lization)                                                                                        \n","                                                                                                  \n"," conv4_block22_2_relu (Activati  (None, 6, 6, 256)   0           ['conv4_block22_2_bn[0][0]']     \n"," on)                                                                                              \n","                                                                                                  \n"," conv4_block22_3_conv (Conv2D)  (None, 6, 6, 1024)   263168      ['conv4_block22_2_relu[0][0]']   \n","                                                                                                  \n"," conv4_block22_3_bn (BatchNorma  (None, 6, 6, 1024)  4096        ['conv4_block22_3_conv[0][0]']   \n"," lization)                                                                                        \n","                                                                                                  \n"," conv4_block22_add (Add)        (None, 6, 6, 1024)   0           ['conv4_block21_out[0][0]',      \n","                                                                  'conv4_block22_3_bn[0][0]']     \n","                                                                                                  \n"," conv4_block22_out (Activation)  (None, 6, 6, 1024)  0           ['conv4_block22_add[0][0]']      \n","                                                                                                  \n"," conv4_block23_1_conv (Conv2D)  (None, 6, 6, 256)    262400      ['conv4_block22_out[0][0]']      \n","                                                                                                  \n"," conv4_block23_1_bn (BatchNorma  (None, 6, 6, 256)   1024        ['conv4_block23_1_conv[0][0]']   \n"," lization)                                                                                        \n","                                                                                                  \n"," conv4_block23_1_relu (Activati  (None, 6, 6, 256)   0           ['conv4_block23_1_bn[0][0]']     \n"," on)                                                                                              \n","                                                                                                  \n"," conv4_block23_2_conv (Conv2D)  (None, 6, 6, 256)    590080      ['conv4_block23_1_relu[0][0]']   \n","                                                                                                  \n"," conv4_block23_2_bn (BatchNorma  (None, 6, 6, 256)   1024        ['conv4_block23_2_conv[0][0]']   \n"," lization)                                                                                        \n","                                                                                                  \n"," conv4_block23_2_relu (Activati  (None, 6, 6, 256)   0           ['conv4_block23_2_bn[0][0]']     \n"," on)                                                                                              \n","                                                                                                  \n"," conv4_block23_3_conv (Conv2D)  (None, 6, 6, 1024)   263168      ['conv4_block23_2_relu[0][0]']   \n","                                                                                                  \n"," conv4_block23_3_bn (BatchNorma  (None, 6, 6, 1024)  4096        ['conv4_block23_3_conv[0][0]']   \n"," lization)                                                                                        \n","                                                                                                  \n"," conv4_block23_add (Add)        (None, 6, 6, 1024)   0           ['conv4_block22_out[0][0]',      \n","                                                                  'conv4_block23_3_bn[0][0]']     \n","                                                                                                  \n"," conv4_block23_out (Activation)  (None, 6, 6, 1024)  0           ['conv4_block23_add[0][0]']      \n","                                                                                                  \n"," conv5_block1_1_conv (Conv2D)   (None, 3, 3, 512)    524800      ['conv4_block23_out[0][0]']      \n","                                                                                                  \n"," conv5_block1_1_bn (BatchNormal  (None, 3, 3, 512)   2048        ['conv5_block1_1_conv[0][0]']    \n"," ization)                                                                                         \n","                                                                                                  \n"," conv5_block1_1_relu (Activatio  (None, 3, 3, 512)   0           ['conv5_block1_1_bn[0][0]']      \n"," n)                                                                                               \n","                                                                                                  \n"," conv5_block1_2_conv (Conv2D)   (None, 3, 3, 512)    2359808     ['conv5_block1_1_relu[0][0]']    \n","                                                                                                  \n"," conv5_block1_2_bn (BatchNormal  (None, 3, 3, 512)   2048        ['conv5_block1_2_conv[0][0]']    \n"," ization)                                                                                         \n","                                                                                                  \n"," conv5_block1_2_relu (Activatio  (None, 3, 3, 512)   0           ['conv5_block1_2_bn[0][0]']      \n"," n)                                                                                               \n","                                                                                                  \n"," conv5_block1_0_conv (Conv2D)   (None, 3, 3, 2048)   2099200     ['conv4_block23_out[0][0]']      \n","                                                                                                  \n"]},{"name":"stdout","output_type":"stream","text":[" conv5_block1_3_conv (Conv2D)   (None, 3, 3, 2048)   1050624     ['conv5_block1_2_relu[0][0]']    \n","                                                                                                  \n"," conv5_block1_0_bn (BatchNormal  (None, 3, 3, 2048)  8192        ['conv5_block1_0_conv[0][0]']    \n"," ization)                                                                                         \n","                                                                                                  \n"," conv5_block1_3_bn (BatchNormal  (None, 3, 3, 2048)  8192        ['conv5_block1_3_conv[0][0]']    \n"," ization)                                                                                         \n","                                                                                                  \n"," conv5_block1_add (Add)         (None, 3, 3, 2048)   0           ['conv5_block1_0_bn[0][0]',      \n","                                                                  'conv5_block1_3_bn[0][0]']      \n","                                                                                                  \n"," conv5_block1_out (Activation)  (None, 3, 3, 2048)   0           ['conv5_block1_add[0][0]']       \n","                                                                                                  \n"," conv5_block2_1_conv (Conv2D)   (None, 3, 3, 512)    1049088     ['conv5_block1_out[0][0]']       \n","                                                                                                  \n"," conv5_block2_1_bn (BatchNormal  (None, 3, 3, 512)   2048        ['conv5_block2_1_conv[0][0]']    \n"," ization)                                                                                         \n","                                                                                                  \n"," conv5_block2_1_relu (Activatio  (None, 3, 3, 512)   0           ['conv5_block2_1_bn[0][0]']      \n"," n)                                                                                               \n","                                                                                                  \n"," conv5_block2_2_conv (Conv2D)   (None, 3, 3, 512)    2359808     ['conv5_block2_1_relu[0][0]']    \n","                                                                                                  \n"," conv5_block2_2_bn (BatchNormal  (None, 3, 3, 512)   2048        ['conv5_block2_2_conv[0][0]']    \n"," ization)                                                                                         \n","                                                                                                  \n"," conv5_block2_2_relu (Activatio  (None, 3, 3, 512)   0           ['conv5_block2_2_bn[0][0]']      \n"," n)                                                                                               \n","                                                                                                  \n"," conv5_block2_3_conv (Conv2D)   (None, 3, 3, 2048)   1050624     ['conv5_block2_2_relu[0][0]']    \n","                                                                                                  \n"," conv5_block2_3_bn (BatchNormal  (None, 3, 3, 2048)  8192        ['conv5_block2_3_conv[0][0]']    \n"," ization)                                                                                         \n","                                                                                                  \n"," conv5_block2_add (Add)         (None, 3, 3, 2048)   0           ['conv5_block1_out[0][0]',       \n","                                                                  'conv5_block2_3_bn[0][0]']      \n","                                                                                                  \n"," conv5_block2_out (Activation)  (None, 3, 3, 2048)   0           ['conv5_block2_add[0][0]']       \n","                                                                                                  \n"," conv5_block3_1_conv (Conv2D)   (None, 3, 3, 512)    1049088     ['conv5_block2_out[0][0]']       \n","                                                                                                  \n"," conv5_block3_1_bn (BatchNormal  (None, 3, 3, 512)   2048        ['conv5_block3_1_conv[0][0]']    \n"," ization)                                                                                         \n","                                                                                                  \n"," conv5_block3_1_relu (Activatio  (None, 3, 3, 512)   0           ['conv5_block3_1_bn[0][0]']      \n"," n)                                                                                               \n","                                                                                                  \n"," conv5_block3_2_conv (Conv2D)   (None, 3, 3, 512)    2359808     ['conv5_block3_1_relu[0][0]']    \n","                                                                                                  \n"," conv5_block3_2_bn (BatchNormal  (None, 3, 3, 512)   2048        ['conv5_block3_2_conv[0][0]']    \n"," ization)                                                                                         \n","                                                                                                  \n"," conv5_block3_2_relu (Activatio  (None, 3, 3, 512)   0           ['conv5_block3_2_bn[0][0]']      \n"," n)                                                                                               \n","                                                                                                  \n"," conv5_block3_3_conv (Conv2D)   (None, 3, 3, 2048)   1050624     ['conv5_block3_2_relu[0][0]']    \n","                                                                                                  \n"," conv5_block3_3_bn (BatchNormal  (None, 3, 3, 2048)  8192        ['conv5_block3_3_conv[0][0]']    \n"," ization)                                                                                         \n","                                                                                                  \n"," conv5_block3_add (Add)         (None, 3, 3, 2048)   0           ['conv5_block2_out[0][0]',       \n","                                                                  'conv5_block3_3_bn[0][0]']      \n","                                                                                                  \n"," conv5_block3_out (Activation)  (None, 3, 3, 2048)   0           ['conv5_block3_add[0][0]']       \n","                                                                                                  \n"," flatten (Flatten)              (None, 18432)        0           ['conv5_block3_out[0][0]']       \n","                                                                                                  \n"," dense (Dense)                  (None, 1024)         18875392    ['flatten[0][0]']                \n","                                                                                                  \n"," dropout (Dropout)              (None, 1024)         0           ['dense[0][0]']                  \n","                                                                                                  \n"," dense_1 (Dense)                (None, 1024)         1049600     ['dropout[0][0]']                \n","                                                                                                  \n"," dense_2 (Dense)                (None, 8)            8200        ['dense_1[0][0]']                \n","                                                                                                  \n","==================================================================================================\n","Total params: 62,591,368\n","Trainable params: 62,476,424\n","Non-trainable params: 114,944\n","____________________________________________________
…
