…
turn model"]},{"cell_type":"code","execution_count":null,"metadata":{"id":"e93FoqO274Q0","outputId":"f9803ea1-41ca-4622-bdd3-f739b61f3a1f"},"outputs":[{"name":"stdout","output_type":"stream","text":["Model: \"model\"\n","_________________________________________________________________\n"," Layer (type)                Output Shape              Param #   \n","=================================================================\n"," input_layer (InputLayer)    [(None, 96, 96, 3)]       0         \n","                                                                 \n"," conv1 (Conv2D)              (None, 96, 96, 64)        1792      \n","                                                                 \n"," mp1 (MaxPooling2D)          (None, 48, 48, 64)        0         \n","                                                                 \n"," conv2 (Conv2D)              (None, 48, 48, 128)       73856     \n","                                                                 \n"," mp2 (MaxPooling2D)          (None, 24, 24, 128)       0         \n","                                                                 \n"," Conv3 (Conv2D)              (None, 24, 24, 256)       295168    \n","                                                                 \n"," mp3 (MaxPooling2D)          (None, 12, 12, 256)       0         \n","                                                                 \n"," gap (GlobalAveragePooling2D  (None, 256)              0         \n"," )                                                               \n","                                                                 \n"," gap_dropout (Dropout)       (None, 256)               0         \n","                                                                 \n"," classifier2 (Dense)         (None, 512)               131584    \n","                                                                 \n"," classifier_dropout2 (Dropou  (None, 512)              0         \n"," t)                                                              \n","                                                                 \n"," output_layer (Dense)        (None, 8)                 4104      \n","                                                                 \n","=================================================================\n","Total params: 506,504\n","Trainable params: 506,504\n","Non-trainable params: 0\n","_________________________________________________________________\n"]}],"source":["standard_model = build_model(input_shape)\n","standard_model.summary()"]},{"cell_t
…
